best_model/best_model.pth (torch, 19496 bytes, 4 tensors)

linear1.weight f4 [256, 12]
-0.05359862 -0.112847984 0.06499732 -0.06277456 -0.29372746 0.038500942 -0.015481357 -0.3189224
-0.1115181 -0.07972137 -0.18352015 -0.20916907 -0.10045934 -0.1916728 0.47683227 -0.3164444
-0.017484821 -0.16403817 0.18601559 0.34787592 -0.031327076 -0.104209244 -0.24881786 0.09326476
-0.4117821 -0.3896101 -0.6715091 -0.5370206 0.20274965 -0.39857122 -0.009886138 0.05247655
0.11457463 0.14522932 0.01797956 -0.0012571262 -0.6014919 -0.23603015 0.14397043 0.07718239
-0.19951968 0.39577654 0.35622308 -0.11656696 -0.13010994 -0.2522327 0.062423978 -0.39577878
0.08329458 0.06292478 0.14633158 0.11626586 0.034340654 -0.3343781 0.21855384 -0.23732634
-0.55584013 -0.20220497 0.041771982 -0.3161061 0.1760757 0.31262347 0.2065273 0.10106414
0.02147764 0.012500069 -0.009931393 0.05262435 0.019605106 0.31776834 0.04717646 0.1073278
0.08502192 0.013246211 -0.044179995 0.275651 0.023995945 0.47936344 -0.17738794 -0.4304317
-0.40256268 0.23574165 0.05723389 0.033146974 0.5460988 0.44207013 0.13948737 0.43984604
-0.19137178 -0.52364296 0.041211125 0.32928777 -0.33508536 0.23528868 0.03571363 -0.13463302
-0.4614139 0.16527307 0.022507688 0.07313756 -0.15822285 -0.45381105 -0.15999216 -0.2544874
-0.21890166 -0.27471158 -0.05582253 0.14331302 -0.11514946 -0.14736383 -0.27197266 -0.077395186
0.1099573 -0.10784012 -0.2846197 0.09372118 -0.24957033 -0.2552764 -0.2702586 0.112757586
0.41155082 -0.48962453 0.08105562 -0.13574542 -0.15776564 0.16877078 0.05729617 -0.08422925
0.03945364 -0.071334384 -0.13740477 0.096609354 -0.11696549 -0.25555316 0.1880389 0.021852732
-0.12733722 -0.23753601 -0.014432557 -0.1823839 -0.0951767 -0.27837664 -0.18277934 0.059714567
0.042517215 0.43215945 -0.28893265 0.40063882 0.02890604 0.4772801 -0.18498863 -0.11090229
0.0691649 -0.29878518 -0.17286447 0.5460307 -0.43676034 -0.17057197 -0.14732052 0.07233209
0.08750342 -0.2291289 -0.49578935 -0.32187033 0.09947584 -0.47970295 -0.41637263 0.39091504
-0.15061252 -0.16537395 0.10587652 -0.106897764 0.2268039 0.22543748 -0.31517312 -0.3239665
-0.11312539 -0.31123146 -0.40555027 0.19779941 0.147351 -0.030370042 -0.4646304 0.1542116
0.16743973 -0.38057688 -0.90858436 0.016833693 0.23676449 0.05264354 0.05748047 -0.30820668
0.06836515 -0.17578273 -0.18522014 -0.047110714 -0.06742644 0.037845876 0.13175039 -0.0438094
-0.13023715 -0.14889334 -0.22657248 0.014944789 0.36677307 0.042498313 0.22548667 0.3113762
0.06807032 0.31004822 -0.11579898 0.25144202 -0.23922102 0.44945914 0.122244075 0.6051311
-0.11287072 -0.37618405 0.13579421 0.077849686 -0.34665927 0.2165341 0.32257336 -0.23609407
0.117166735 -0.17188415 0.17362742 -0.028660325 -0.5421614 -0.03063044 -0.7331178 -0.06981311
0.08423762 -0.24844544 0.2292695 0.20726997 -0.29849207 0.13120264 -0.40453246 0.16283627
0.33009532 0.4986398 -0.39677703 -0.087913685 -0.3792239 -0.31707337 -0.2112333 0.07450631
0.2832441 -0.20416868 0.10866157 0.35707706 0.09394261 -0.2960064 -0.3920899 0.48190057
00000000: 3a8a 5bbd d81c e7bd 511d 853d f38f 80bd
00000010: 7263 96be 2ab3 1d3d 85a5 7dbc cc49 a3be
00000020: 9a63 e4bd f544 a3bd b5ec 3bbe 6b30 56be
00000030: a0bd cdbd e045 44be 5c23 f43e 0005 a2be
00000040: 543c 8fbc 9ff9 27be df7a 3e3e cb1c b23e
00000050: d250 00bd a86b d5bd 1cca 7ebe 9801 bf3d
00000060: 1ad5 d2be fa7a c7be 05e8 2bbf 2f7a 09bf
00000070: 9b9d 4f3e 8711 ccbe 78f9 21bc a7f1 563d
00000080: 1ba6 ea3d ffb6 143e df49 933c 28c6 a4ba
00000090: 60fb 19bf e3b1 71be fc6c 133e cd11 9e3d
000000a0: e34e 4cbe 39a3 ca3e df62 b63e a9ba eebd
000000b0: 8a3b 05be a524 81be 49b0 7f3d 84a3 cabe
000000c0: 5996 aa3d b5de 803d f2d7 153e cc1c ee3d
000000d0: c9a8 0c3d 9b33 abbe 94cc 5f3e ad05 73be
000000e0: 8a4b 0ebf d20e 4fbe 1919 2b3d a9d8 a1be
000000f0: 304d 343e 2f10 a03e e47b 533e b7fa ce3d
00000100: e0f1 af3c 17cd 4c3c 48b7 22bc a18c 573d
00000110: e39a a03c 88b2 a23e 1b3c 413d adce db3d
00000120: f91f ae3d a306 593c 15f6 34bd 2122 8d3e
00000130: 2593 c43c 206f f53e 2fa5 35be 8b61 dcbe
00000140: b21c cebe 4266 713e 156e 6a3d 1fc5 073d
00000150: 22cd 0b3f 0457 e23e c7d5 0e3e 8033 e13e
00000160: f7f6 43be 770d 06bf ffcc 283d 6898 a83e
00000170: 4f90 abbe 84ef 703e 7548 123d 3ddd 09be
00000180: 713e ecbe 583d 293e 0b62 b83c 25c9 953d
00000190: 2c05 22be ec59 e8be fcd4 23be 2c4c 82be
000001a0: c227 60be ffa6 8cbe 2aa6 64bd a6c0 123e
000001b0: 7bd3 ebbd 8be6 16be 0040 8bbe 5e81 9ebd
000001c0: 4b31 e13d 48db dcbd acb9 91be e4f0 bf3d
000001d0: 5d8f 7fbe 97b3 82be 565f 8abe 73ed e63d
000001e0: cab6 d23e 11b0 fabe 7d00 a63d d900 0bbe
000001f0: 518d 21be 3fd2 2c3e 64af 6a3d 6380 acbd
00000200: 249a 213d c317 92bd d6b3 0cbe 20db c53d
00000210: 9a8b efbd ddd7 82be 458d 403e 8004 b33c
00000220: b064 02be a43c 73be 8876 6cbc d8c2 3abe
00000230: 00ec c2bd 6287 8ebe 822a 3bbe 4397 743d
00000240: 8826 2e3d 0144 dd3e fbee 93be 8820 cd3e
00000250: 5ccc ec3c 0f5e f43e a96d 3dbe bd20 e3bd
00000260: 54a6 8d3d 5ffa 98be 6203 31be abc8 0b3f
00000270: 0d9f dfbe 6baa 2ebe 31db 16be d922 943d
00000280: fe34 b33d c4a0 6abe 1ad8 fdbe 30cc a4be
00000290: fdb9 cb3d a09b f5be cb2e d5be 0426 c83e
000002a0: 2b3a 1abe ca57 29be cad5 d83d 37ed dabd
000002b0: 483f 683e 15d9 663e 5f5e a1be f0de a5be
000002c0: 49ae e7bd bb59 9fbe 49a4 cfbe ee8b 4a3e
000002d0: 2ee3 163e 98ca f8bc 09e4 edbe a5e9 1d3e
000002e0: 5275 2b3e f9da c2be fc98 68bf d0e6 893c
000002f0: 6472 723e c1a0 573d a470 6b3d 44cd 9dbe
00000300: 0703 8c3d 6300 34be 59aa 3dbe 2af7 40bd
00000310: e016 8abd 4704 1b3d 93e9 063e 7c71 33bd
00000320: e35c 05be 7f77 18be 9e02 68be fdda 743c
00000330: aec9 bb3e b612 2e3d fae5 663e b46c 9f3e
00000340: 7468 8b3d a4be 9e3e 0428 edbd 02bd 803e
00000350: 5bf6 74be 821f e63e 1a5b fa3d dfe9 1a3f
00000360: c428 e7bd 329b c0be a30d 0b3e a86f 9f3d
00000370: 537d b1be 1dbb 5d3e 5628 a53e a5c2 71be
00000380: 1df5 ef3d 6602 30be 63cb 313e 0fc9 eabc
00000390: 17cb 0abf b0ec fabc 9cad 3bbf 2dfa 8ebd
000003a0: c684 ac3d 7b68 7ebe a0c5 6a3e 943e 543e
000003b0: f4d3 98be fc59 063e e11e cfbe 8dbe 263e
000003c0: 4102 a93e b74d ff3e 5c26 cbbe 170c b4bd
000003d0: a329 c2be 7157 a2be 8b4d 58be c496 983d
000003e0: 5f05 913e 9811 51be f589 de3d ced2 b63e
000003f0: fc64 c03d 278e 97be 02c0 c8be acbb f63e

linear1.bias f4 [256]
-0.024137756 -0.32200667 0.14234257 -0.04586921 -0.29380316 -0.24074145 -0.4170045 0.20634344
-0.030474039 -0.28370565 -0.41579884 -0.16676469 0.0019450207 -0.2086433 0.019042382 -0.22415912
-0.17432927 0.16097307 -0.2869499 0.15691806 -0.15850694 -0.19139092 0.0929687 0.23939791
0.12792619 -0.3744321 -0.2710864 0.047840334 0.3280346 -0.41876504 -0.22380443 -0.13696884
-0.14978436 -0.56009215 -0.23540884 0.103280835 -0.179178 -0.24145114 -0.15191482 0.1713486
-0.27060992 0.2654219 -0.27147382 -0.13136804 -0.08645032 -0.022079632 0.09306254 -0.38414818
-0.276788 -0.0992797 -0.0041867914 0.0015909435 0.052769292 -0.047749 -0.09136662 0.036814276
0.039223168 -0.15416293 -0.17309038 -0.3857283 -0.14666538 -0.5335741 -0.22588195 0.09370411
-0.11044833 -0.309135 0.069897585 -0.07996076 -0.11710337 -0.23954442 0.017326042 -0.17558058
-0.27847806 0.06439196 -0.112272 0.07850612 0.21559343 -0.26875517 -0.2507523 -0.030636668
0.11196894 -0.2877482 -0.15167877 -0.025396787 -0.06286422 -0.036662064 -0.091356985 -0.12550837
-0.015274497 -0.18119112 -0.091515884 -0.1991454 -0.23151636 -0.17624132 -0.17655182 -0.16205516
-0.18589582 -0.14035031 -0.0150848795 -0.20637551 0.0483876 -0.08768657 0.12065079 -0.19108416
-0.25465807 -0.2610733 -0.42475754 0.007120975 -0.10826776 0.051959623 -0.23071226 0.0954315
0.03841739 -0.067949295 -0.34032965 0.08574856 -0.07204034 -0.020523334 0.0030044059 -0.069970295
-0.12145142 -0.10717707 -0.019568907 -0.113752216 -0.14581229 -0.27251422 0.07646967 -0.10462143
0.1264079 0.056032144 -0.077006936 0.15306176 -0.26904103 -0.029094508 -0.10888082 -0.107245564
-0.023190586 -0.03613056 -0.28025752 -0.14536935 0.10923914 -0.42522103 -0.25357807 -0.51985174
-0.18326749 -0.5269108 -0.059005644 -0.3180099 -0.0829225 0.10472979 -0.06993027 -0.4823705
-0.39554474 0.13278323 -0.024925863 -0.022985172 -0.19168893 0.17196293 0.08142822 0.10298191
0.01669905 0.08498788 -0.105119 -0.2005776 -0.253456 -0.049963444 0.100923 -0.106533855
-0.11999413 -0.10051902 0.22472438 -0.05176057 -0.07138434 0.14424258 -0.2913084 -0.11582941
-0.017669871 -0.0067758574 -0.09953546 0.25959858 -0.18973547 -0.40571153 -0.19702096 -0.09059378
0.05024271 -0.14267032 0.124824114 -0.33661395 0.098325506 -0.08772018 0.06341726 -0.18565787
0.021897534 -0.110308416 -0.25471687 0.078466184 -0.03038263 -0.026675321 -0.3533583 0.2196509
0.1871121 -0.04828606 0.026623704 -0.31520304 -0.23573057 -0.20613821 -0.14554773 -0.02845728
0.02346582 -0.07291444 -0.123134874 0.020819739 -0.18765077 0.102492824 -0.0281979 -0.3498746
-0.056681145 -0.31702438 0.12461637 -0.021949794 -0.19913243 -0.009591654 -0.22251295 -0.2595095
-0.27519727 -0.17475814 0.06013862 -0.053583585 0.1801037 -0.018165207 0.21271755 0.25402847
-0.17887251 -0.19094138 -0.38147354 -0.15509745 0.1515829 -0.30430228 -0.018871287 0.1493781
-0.038026296 -0.08741373 -0.12611322 0.22230326 0.31473666 -0.3087825 0.28283542 -0.10884572
0.098619536 -0.18373293 -0.043995023 0.1976888 0.030683488 -0.002259445 -0.1475741 -0.13155226
00000000: 8bbc c5bc 0fde a4be 40c2 113e 5ae1 3bbd
00000010: 5e6d 96be ed84 76be 9d81 d5be b24b 533e
00000020: b1a4 f9bc de41 91be 96e3 d4be 5dc4 2abe
00000030: 11f0 fe3a 97a6 55be c5fe 9b3c f889 65be
00000040: 5f83 32be 20d6 243e 19eb 92be 21af 203e
00000050: a54f 22be fbfb 43be 6066 be3d ba24 753e
00000060: 15ff 023e 90b5 bfbe d6cb 8abe 3af4 433d
00000070: 27f4 a73e 5f68 d6be fd2c 65be 8f41 0cbe
00000080: 1261 19be 3362 0fbf 040f 71be e784 d33d
00000090: 707a 37be f83e 77be 8f8f 1bbe 0276 2f3e
000000a0: 628d 8abe 61e5 873e 9efe 8abe 5885 06be
000000b0: de0c b1bd 58e0 b4bc 9397 be3d 12af c4be
000000c0: 28b7 8dbe 2853 cbbd 5a31 89bb 3587 d03a
000000d0: 9d24 583d 7594 43bd 6c1e bbbd 91ca 163d
000000e0: 79a8 203d e3dc 1dbe 9b3e 31be 2e7e c5be
000000f0: 732f 16be 5098 08bf 994d 67be f1e7 bf3d
00000100: bc32 e2bd f146 9ebe 7726 8f3d 78c2 a3bd
00000110: e4d3 efbd 224b 75be 58ef 8d3c 65cb 33be
00000120: ad94 8ebe efdf 833d ddee e5bd d1c7 a03d
00000130: 86c4 5c3e 479a 89be 9b62 80be c0f9 fabc
00000140: f94f e53d bb53 93be ae51 1bbe ec0c d0bc
00000150: f5be 80bd f62a 16bd 5f19 bbbd 4485 00be
00000160: e241 7abc 2a8a 39be ae6c bbbd c6ec 4bbe
00000170: a012 6dbe 9b78 34be 00ca 34be caf1 25be
00000180: 795b 3ebe feb7 0fbe 9226 77bc 1a54 53be
00000190: 1332 463d 0495 b3bd c317 f73d 91ab 43be
000001a0: 8b62 82be 66ab 85be d279 d9be 1157 e93b
000001b0: 7dbb ddbd 9dd3 543d d63f 6cbe 9771 c33d
000001c0: 8e5b 1d3d 0029 8bbd b03f aebe f19c af3d
000001d0: e389 93bd 8d20 a8bc 91e5 443b 964c 8fbd
000001e0: 86bb f8bd a77f dbbd f94e a0bc ecf6 e8bd
000001f0: d14f 15be fc86 8bbe 219c 9c3d c343 d6bd
00000200: 1371 013e f681 653d d0b5 9dbd 39bc 1c3e
00000210: bfbf 89be 9b57 eebc e8fc debd 90a3 dbbd
00000220: 2ffa bdbc a3fd 13bd ea7d 8fbe b4db 14be
00000230: c5b8 df3d 92b6 d9be fcd4 81be 0115 05bf
00000240: 79aa 3bbe a0e3 06bf e7af 71bd 32d2 a2be
00000250: 46d3 a9bd 927c d63d 9a37 8fbd 44f9 f6be
00000260: d784 cabe 54f8 073e 5331 ccbc 664b bcbc
00000270: 1a4a 44be 0d17 303e d7c3 a63d 2ee8 d23d
00000280: 72cc 883c 200e ae3d a148 d7bd 3764 4dbe
00000290: fcc4 81be 78a6 4cbd b8b0 ce3d 6c2e dabd
000002a0: 7cbf f5bd eadc cdbd 261e 663e e402 54bd
000002b0: f431 92bd 54b4 133e 6026 95be f837 edbd
000002c0: 68c0 90bc 0308 debb 3fd9 cbbd 1bea 843e
000002d0: 044a 42be 6cb9 cfbe ddbf 49be 3b89 b9bd
000002e0: 4dcb 4d3d 2b18 12be c9a3 ff3d aa58 acbe
000002f0: e25e c93d a3a6 b3bd e9e0 813d 191d 3ebe
00000300: 7562 b33c 61e9 e1bd 406a 82be e1b2 a03d
00000310: fee4 f8bc 3486 dabc 61eb b4be 2aec 603e
00000320: 509a 3f3e 9bc7 45bd f419 da3c 4b62 a1be
00000330: 5b63 71be e515 53be 770a 15be 3e1f e9bc
00000340: 643b c03c 2a54 95bd 232e fcbd 288e aa3c
00000350: 8627 40be c2e7 d13d 48ff e6bc c322 b3be
00000360: 7d2a 68bd 0551 a2be de36 ff3d 0ed0 b3bc
00000370: 5fe9 4bbe 5026 1dbc 6fda 63be 6ede 84be
00000380: a8e6 8cbe ccf3 32be ea53 763d 767a 5bbd
00000390: 1b6d 383e 33cf 94bc a1d2 593e 0510 823e
000003a0: 5b2a 37be 2386 43be 8050 c3be ded1 1ebe
000003b0: 8c38 1b3e 82cd 9bbe f597 9abc 93f6 183e
000003c0: 76c1 1bbd f805 b3bd d323 01be 77a3 633e
000003d0: 2a25 a13e bd18 9ebe cecf 903e 81ea debd
000003e0: 0af9 c93d 7c24 3cbe 2034 34bd ef6e 4a3e
000003f0: f05b fb3c 3213 14bb aa1d 17be a3b5 06be

linear2.weight f4 [4, 256]
-0.0011570761 0.29685393 -0.2479364 0.1420384 -0.0058888933 -0.01065262 0.3919166 -0.1025123
-0.0061173914 -0.039427325 0.22956261 0.0067520514 -0.12925845 0.20969698 0.028292032 0.194149
-0.0019561215 -0.123164766 0.031578504 -0.16019793 -0.2708528 0.4875971 -0.08300641 -0.016779235
-0.10200892 -0.1659015 -0.012649855 0.072966896 -0.31830287 0.0024745862 -0.0016637072 0.27518362
0.10491438 0.27635583 -0.00025425784 -0.24344663 -0.07970863 -0.22437061 -0.32322484 -0.022613589
0.119838 0.033412356 -0.22116286 -0.07729139 -0.27344474 -0.30410987 0.087671 -0.01692119
-0.053220686 0.06591556 -0.19978854 -0.5233126 0.24865896 0.16743991 -0.023986096 -0.06881552
-0.14396642 5.5432913e-05 0.14798695 0.031058377 -0.056864373 -0.0048321323 0.03930575 -0.2830355
-0.110309035 -0.025702255 0.1932805 0.3059259 -0.019516077 0.35649043 -0.120774485 -0.007246175
0.35399887 -0.050910763 -0.2748578 -0.30612746 -0.081280485 0.0069561773 -0.007114732 -0.07780022
-0.08277477 0.011951874 0.08912458 -0.025211949 -0.058354765 0.33145306 0.28057453 0.20050845
0.040104177 -0.12036555 0.014126576 0.043501586 0.19280304 0.052854266 0.11799614 -0.10819541
0.22032174 -0.03567709 -0.031233244 0.109902196 -0.38507095 -0.004480579 -0.063216865 -0.3010887
-0.47347283 -0.113746226 -0.0256088 0.1845776 0.34676147 -0.11198316 0.024932096 0.22205779
-0.003795835 -0.058610633 0.11195019 -0.08769074 -0.071813636 0.03727725 -0.19803776 -0.08625507
-0.046141658 0.2060409 0.09921722 -0.10839797 -0.28254202 0.027443826 -0.0731989 -0.08839269
-0.20692952 -0.020941144 0.28953785 -0.049084317 -0.1035159 0.0061233495 -0.3306368 -0.08775554
0.11939119 -0.14777648 -0.056609333 -0.006087519 0.2713169 0.13256387 0.17788385 0.17996249
-0.007961789 -0.010120953 0.022563467 0.05030314 -0.017554242 -0.14825977 -0.10806469 -0.11297741
-0.19604981 -0.127107 -0.010349574 -0.028467435 0.027522238 -0.26943478 -0.0855376 -0.11424855
-0.18708621 -0.011640421 -0.10962383 -0.08724757 -0.10978447 -0.112497576 -0.15215875 -0.047367424
-0.100320145 0.48424026 0.19174908 -0.19943339 0.008386723 0.037570257 0.20062725 0.50194037
-0.038195327 0.027913606 -0.09732696 -0.311669 0.0012193139 -0.15101168 -0.3350998 0.07731227
0.42169318 0.16727431 -0.14411072 -0.034304738 -0.13503668 -0.12891872 -0.0145230815 -0.019302294
0.21328272 -0.09578359 -0.06598391 -0.064873315 -0.13655551 -0.099237986 0.22358817 -0.1480601
-0.047737263 0.073331885 -0.56246233 0.006158843 0.13420238 -0.079531774 -0.23755972 0.2513792
-0.033058677 -0.11640959 0.19783399 -0.23640223 0.44805312 -0.07402735 -0.018259566 0.48384607
-0.118899874 -0.01810395 -0.24237129 -0.081504926 -0.118811235 -0.012405229 0.3035817 0.36633363
0.018211436 0.016262475 -0.12621519 0.24432409 -0.105270535 0.21981275 -0.08706686 0.14118904
-0.06353519 -0.39098236 0.15782247 0.06344091 -0.15334813 0.118852414 0.21973196 -0.026012827
-0.3457263 0.09824105 0.3186474 0.158255 -0.1583375 0.26699185 -0.18353122 -0.050213296
-0.31228325 -0.0127151115 -0.0054356596 -0.003226397 0.020122664 -0.13987692 -0.09442768 -0.027892312
00000000: 08a9 97ba 3dfd 973e 0ae3 7dbe 8472 113e
00000010: 9ef7 c0bb 5488 2ebc 4ba9 c83e f8f1 d1bd
00000020: 6674 c8bb 8c7e 21bd 7612 6b3e 5040 dd3b
00000030: 545c 04be ceba 563e b1c4 e73c ffce 463e
00000040: 4632 00bb cf3d fcbd 7658 013d ed0a 24be
00000050: 38ad 8abe 54a6 f93e 44ff a9bd 9b74 89bc
00000060: 0dea d0bd 15e2 29be 5641 4fbc ab6f 953d
00000070: 98f8 a2be ab2c 223b c010 daba dee4 8c3e
00000080: 5add d63d 837e 8d3e e94d 85b9 134a 79be
00000090: 473e a3bd 69c1 65be ba7d a5be 2240 b9bc
000000a0: a06d f53d 65db 083d 8478 62be f34a 9ebd
000000b0: f300 8cbe 4ab4 9bbe da8c b33d 4f9e 8abc
000000c0: effd 59bd bdfe 863d 5e95 4cbe d1f7 05bf
000000d0: 74a0 7e3e 5e75 2b3e 7d7e c4bc 27ef 8cbd
000000e0: ef6b 13be a380 6838 e489 173e 236e fe3c
000000f0: 9eea 68bd dd56 9ebb 11ff 203d 07ea 90be
00000100: b4e9 e1bd 898d d2bc 53eb 453e 52a2 9c3e
00000110: 2ee0 9fbc ea85 b63e 9d58 f7bd 5271 edbb
00000120: 573f b53e ce87 50bd 29ba 8cbe bdbc 9cbe
00000130: 6276 a6bd a5f0 e33b b322 e9bb b955 9fbd
00000140: d285 a9bd cbd1 433c f386 b63d 4a89 cebc
00000150: 6805 6fbd 37b4 a93e 77a7 8f3e 1652 4d3e
00000160: 4744 243d 3782 f6bd 2773 673c b82e 323d
00000170: 296e 453e b77d 583d f6a7 f13d 8e95 ddbd
00000180: 069c 613e 2422 12bd dcdc ffbc 6714 e13d
00000190: 0528 c5be d2d1 92bb d877 81bd 4c28 9abe
000001a0: 086b f2be c8f3 e8bd 8cc9 d1bc e901 3d3e
000001b0: b88a b13e 6d57 e5bd 653e cc3c 1e63 633e
000001c0: 8bc3 78bb b411 70bd 2446 e53d 3497 b3bd
000001d0: 0713 93bd 08b0 183d 69ca 4abe 80a6 b0bd
000001e0: 09ff 3cbd 63fc 523e 6632 cb3d c1ff ddbd
000001f0: 59a9 90be e0d1 e03c 4ee9 95bd 3a07 b5bd
00000200: 55e5 53be c38c abbc 4e3e 943e a30c 49bd
00000210: 2500 d4bd 61a6 c83b 3a49 a9be 2db9 b3bd
00000220: 5e83 f43d b852 17be 30df 67bd d079 c7bb
00000230: 0cea 8a3e d3be 073e 2f27 363e 1648 383e
00000240: 2a72 02bc 5bd2 25bc 05d7 b83c aa0a 4e3d
00000250: eacd 8fbc 69d1 17be 0551 ddbd b360 e7bd
00000260: 48c1 48be 5628 02be 4291 29bc 8a34 e9bc
00000270: 5176 e13c 5bf3 89be 562e afbd 25fb e9bd
00000280: 8793 3fbe 77b7 3ebc 7582 e0bd dbae b2bd
00000290: aed6 e0bd 2165 e6bd 81cf 1bbe 5804 42bd
000002a0: a674 cdbd 57ee f73e df59 443e 4438 4cbe
000002b0: 7768 093c 45e3 193d 3b71 4d3e 2a7f 003f
000002c0: b472 1cbd 13ab e43c 5b53 c7bd 1493 9fbe
000002d0: 63d1 9f3a cea2 1abe 3392 abbe e555 9e3d
000002e0: 2be8 d73e f549 2b3e c391 13be 2083 0cbd
000002f0: 0e47 0abe 4503 04be 38f2 6dbc d81f 9ebc
00000300: c966 5a3e 302a c4bd 9222 87bd 4ddc 84bd
00000310: 35d5 0bbe 493d cbbd 4cf4 643e 119d 17be
00000320: 2688 43bd 072f 963d 88fd 0fbf 1fd0 c93b
00000330: 596c 093e 8ee1 a2bd db42 73be c6b4 803e
00000340: 8968 07bd 2768 eebd fe94 4a3e 6d13 72be
00000350: 3867 e53e a79b 97bd 1695 95bc acba f73e
00000360: c781 f3bd bc4e 94bc 2e30 78be 0eec a6bd
00000370: 4e53 f3bd 4d3f 4bbc 106f 9b3e 1590 bb3e
00000380: 2630 953c e238 853c 8e3e 01be 1830 7a3e
00000390: 1498 d7bd 9816 613e 1c50 b2bd dc93 103e
000003a0: bd1e 82bd d72e c8be 379c 213e 4fed 813d
000003b0: 4b07 1dbe e568 f33d 6a01 613e da18 d5bc
000003c0: 0a03 b1be 9b32 c93d c125 a33e 990d 223e
000003d0: 3a23 22be 28b3 883e 9cef 3bbe 75ac 4dbd
000003e0: 97e3 9fbe 0b53 50bc 9e1d b2bb f671 53bb
000003f0: 49d8 a43c e53b 0fbe 4d63 c1bd 6b7e e4bc

linear2.bias f4 [4]
-0.22145724 -0.14490259 -0.025495011 -0.11388542
00000000: b0c5 62be 5861 14be eada d0bc c23c e9bd
